…
lhost:8080/"},"id":"Q63qt5Ts3BpK","executionInfo":{"status":"ok","timestamp":1680749067518,"user_tz":-330,"elapsed":789,"user":{"displayName":"MANDAVA DEEPAK 20BAI1162","userId":"02368324067293942819"}},"outputId":"951b009d-e9d7-45c7-8a1c-d51821363724"},"execution_count":10,"outputs":[{"output_type":"stream","name":"stdout","text":["Model: \"sequential\"\n","_________________________________________________________________\n"," Layer (type)                Output Shape              Param #   \n","=================================================================\n"," conv2d (Conv2D)             (None, 64, 64, 64)        640       \n","                                                                 \n"," max_pooling2d (MaxPooling2D  (None, 32, 32, 64)       0         \n"," )                                                               \n","                                                                 \n"," conv2d_1 (Conv2D)           (None, 30, 30, 32)        18464     \n","                                                                 \n"," max_pooling2d_1 (MaxPooling  (None, 15, 15, 32)       0         \n"," 2D)                                                             \n","                                                                 \n"," dropout (Dropout)           (None, 15, 15, 32)        0         \n","                                                                 \n"," conv2d_2 (Conv2D)           (None, 13, 13, 16)        4624      \n","                                                                 \n"," max_pooling2d_2 (MaxPooling  (None, 6, 6, 16)         0         \n"," 2D)                                                             \n","                                                                 \n"," dropout_1 (Dropout)         (None, 6, 6, 16)          0         \n","                                                                 \n"," flatten (Flatten)           (None, 576)               0         \n","                                                                 \n"," dense (Dense)               (None, 128)               73856     \n","                                                                 \n"," dropout_2 (Dropout)         (None, 128)               0         \n","                                                                 \n"," dense_1 (Dense)             (None, 50)                6450      \n","                                                                 \n"," dense_2 (Dense)             (None, 25)                1275      \n","                                                                 \n","=================================================================\n","Total params: 105,309\n","Trainable params: 105,309\n","Non-trainable params: 0\n","_________________________________________________________________\n"]}]},{"cell_type":"code","source":["#es = EarlyStopping(monitor='val_loss', mode='min', verbose=1
…
